ranking_model_lite.tflite (tflite, 3336 bytes, 5 tensors)

arith.constant f4 [8, 16]
00000000: 6967 853f 3712 dac0 f7a3 aa40 3265 9cbf
00000010: 2705 7840 5a27 e03f edd2 5cbf c0bc 2841
00000020: 9278 7f40 8d3e ca3f 838e efbf 08a7 363e
00000030: 39d9 0340 02f3 6940 ca2a 02c1 6a59 25c0
00000040: 01f2 293f cf37 f3c0 7ba4 2cc0 0086 ba40
00000050: 6242 adbc 9e64 7fbf f555 8bbf f844 e0be
00000060: e943 03c1 1d5d 10c0 91a5 1bc0 2030 69bf
00000070: 1c1e 5e40 560b 87c0 c3ab c1bf fe6f 9cbf
00000080: 7d9b 3fbf a551 bfbf a365 54c0 7c79 993f
00000090: b8b7 fe3f e937 bf3f eaff a63f c2b4 2441
000000a0: b855 a4c0 64e7 833f 08b1 3140 e278 a9be
000000b0: 8ee6 7940 460a c73f 9ca7 aec0 c8af 8b40
000000c0: 4437 7ebc 1de5 46c1 9dc7 02c1 8fc2 8abf
000000d0: 7633 80c0 f7e3 7e3e 616b b3bf 0da0 3e41
000000e0: 8db2 e140 4f86 e03f 0c3e f8bf f242 5e3f
000000f0: 4c12 86c0 9595 ebbf caf5 da40 6601 a240
00000100: aee8 b2be cdb8 66c0 31ba b6c0 991e 7840
00000110: a3e5 6e3f ee5d 57bf a2cb 9d3f 059c 2b41
00000120: f278 a0c0 3f2e a8be 3a4d e63e 49d5 8d3e
00000130: 221f 9f3f 5464 4d40 ff16 0041 68b8 8240
00000140: 828b 3e3e 190d 3cc1 aefe 55c0 d9fc 36c0
00000150: 0d4a 70c0 6ba1 3abf 2d7a 8abf face 3d41
00000160: 5b45 8f40 fb74 f9bf 1d24 4940 80bd 593f
00000170: 2953 7f40 ba6b f53c 642c 86c0 dad2 e440
00000180: 0383 c53d 6b02 1fc0 7464 b93f 17af a1c0
00000190: 69a7 60c0 e053 dfbf d489 cfbf cb0a e8bf
000001a0: 0355 0740 fe67 c13f 63e3 3fc0 c208 953f
000001b0: 8c18 0ebf 1eb5 a8c0 ab97 553e b389 70c0
000001c0: c368 39bf c5ce adbf 8c72 2d41 0475 cf40
000001d0: 1eca 9c40 4ba4 f5bf c75c d8be df64 7dc0
000001e0: da87 c6c0 51a1 54c0 e485 1d40 f71c 4bbf
000001f0: beb7 01c0 5600 a73f 8f56 3fc0 8e14 d83f
1.0422183 -6.8147235 5.3325152 -1.2218382 3.8753145 1.7512009 -0.8625935 10.546082
3.991734 1.5800339 -1.8715366 0.17837155 2.0601332 3.655457 -8.135447 -2.5835824
0.66384894 -7.6005626 -2.697539 5.8288574 -0.021149818 -0.99762905 -1.0885607 -0.4380262
-8.20408 -2.2556832 -2.4319804 -0.9108906 3.4705877 -4.220134 -1.5130543 -1.2221677
-0.7484663 -1.4946791 -3.3187034 1.1990199 1.9899817 1.4938937 1.3046849 10.29413
-5.1354637 1.030499 2.7764301 -0.3310004 3.904697 1.555001 -5.45796 4.3652077
-0.015516106 -12.430936 -8.173734 -1.0840625 -4.006282 0.24891649 -1.4017144 11.914075
7.0530457 1.7540988 -1.9393935 0.868209 -4.1897335 -1.8405024 6.8425035 5.0626707
-0.34943146 -3.6050293 -5.7102284 3.8768675 0.9331915 -0.841277 1.2327769 10.725591
-5.014764 -0.32847783 0.44980794 0.27701786 1.2431376 3.2092485 8.005614 4.0850105
0.18607906 -11.753198 -3.3436694 -2.8591826 -3.7545197 -0.72902554 -1.0818535 11.863031
4.4772162 -1.9488825 3.1428292 0.8505478 3.9894507 0.029958595 -4.192919 7.1507387
0.09644129 -2.4845226 1.4483781 -5.0526233 -3.510218 -1.7447472 -1.6213937 -1.8128294
2.1145637 1.5109861 -2.9982536 1.1643298 -0.55506206 -5.272109 0.20858638 -3.7584045
-0.7242548 -1.3578726 10.840466 6.483034 4.8996725 -1.9190763 -0.42258283 -3.9592817
-6.2040834 -3.322346 2.461297 -0.7934107 -2.0268397 1.3046978 -2.989658 1.6881273

arith.constant1 f4 [8]
00000000: c467 92c0 3931 9b40 6b6e 46c0 5f5a ad3e
00000010: 6a17 27c0 6a29 113f ed19 6f40 7719 2e40
-4.5751667 4.8497586 -3.1004894 0.3385801 -2.610804 0.5670382 3.7359574 2.7203043

arith.constant2 f4 [1, 8]
00000000: 2d83 41ba b85d afbe 7102 d4be 0faa 17bf
00000010: be5f 36bf c751 d4bd d1e3 f23d a5b4 893e
-0.00073819124 -0.3425119 -0.41408113 -0.59243864 -0.7123984 -0.1036716 0.11859859 0.26895633

arith.constant4 f4 [16]
00000000: bc1d 343a 0000 0000 0000 0000 a544 8abd
00000010: a06a b13c 5bd7 68bd dced b83b 0000 0000
00000020: 6040 b7bc 6e57 6d3a 5fbe 163c 1e9e d13c
00000030: 9850 34be 550e 81bb cdda 88bc de9b efbc
0.0006870886 0.0 0.0 -0.06751374 0.021657288 -0.056846004 0.0056435894 0.0
-0.022369564 0.00090538606 0.009200661 0.025588091 -0.17608869 -0.003938476 -0.016705895 -0.029249128

sequential_1/dense_1/MatMul f4 [16, 12]
00000000: 9e87 083f a871 993e 3ddd cb3e 29c9 943e
00000010: 9e14 a63e f593 65be 84f2 753d 261d f03e
00000020: dd94 c83d b56d e7bd 311e adbe 4e84 e3be
00000030: a014 c5bd 9a40 9abe 7e65 c9be 38f7 8a3e
00000040: 34f9 f4bd 2a4d 94be 7e57 bbbe 7022 473d
00000050: d425 a3be 3497 063e 8eef 833e 1014 b43d
00000060: 50cf 1d3e 0019 1f3d d8a5 923e 7674 87be
00000070: c2e8 ab3e 480b a2be a0dd fd3d 56e7 b6be
00000080: 494a eabe 5048 97be ba74 903e 057d 89be
00000090: fccd 59be 8064 fd3d 65a9 c6be a2c9 743c
000000a0: ad51 0f3e 0681 013d f171 babd 0261 3e3d
000000b0: b6bd febd e9db b53c 0a03 24bd 2826 9bbe
000000c0: 68b8 8abe b135 db3d 6e9d 9a3e 78fb 903d
000000d0: 0959 a53e 54bf 47be 24a6 d2be 18b9 a83d
000000e0: e17d c6be fcec d93b e48c 953e 9859 183e
000000f0: 584a a13e eac6 d9be f06c 873e 72c3 f83e
00000100: bf50 a03e f4f3 be3d 1f16 aebe 75f4 393e
00000110: 1158 99be 3200 e1be dccc 84be 21cd 4a3e
00000120: ca77 d3bd 982a 6dbe f8d7 b03e 3dae 803e
00000130: 6e0d 5abe adfb e13e 83fa b23e dff9 e0be
00000140: f117 693c 45f5 7d3e ea14 d63e db1f b9be
00000150: bb1b e9be 674e 70be d6fb dd3e 5055 763e
00000160: 84b1 b3be 9876 e93e 57e3 ebbe 98f4 acbd
00000170: c313 dabe fa4e c0be b0e7 563d 687f 0c3d
00000180: 2202 84be e5a1 46be a8cd 3c3e 67ae 5a3e
00000190: 1585 84bd 1703 9fbe 7e1c c4be 3dc4 cd3e
000001a0: a34e c6be a618 32be d5ee 9e3e f6b3 c53e
000001b0: ec64 a3be d845 303e a721 9c3e 18e1 d3bd
000001c0: 811c b33e d3ad 8e3e 1d33 d03e 155c aa3e
000001d0: 9e4e bdbc 63b0 733d f7c9 9a3e 5485 38be
000001e0: 3130 cfbe 38ba 673d 5855 af3e c5b5 f9bc
000001f0: a8b4 9f3e bb38 8bbd 2d11 91bc 5085 543e
00000200: 4fa9 683e cc17 bcbe 8006 e93e 371d b2bd
00000210: 223c 14be a0b4 cd3e d46e 9fbe 8a05 9b3d
00000220: eaab 7d3e 98e8 20be abf3 30be 1acf b8bd
00000230: 769e c43d 5e6c f73e 8a92 41be a75e 41bd
00000240: 90ee 2f3e 7866 b4be 6ee3 e4be cadd 1d3e
00000250: 71dc a2be 4a4e 173e 615c 08bd 0ec2 573d
00000260: 5229 b7be 93d9 583e ffa3 b83e bccb b83e
00000270: f673 b8be 3e72 ac3e 8c3b a6be 0b6a b0be
00000280: 5969 cf3e abb6 963e 99eb 4e3e e877 c73e
00000290: 8c49 893e 75be 9c3e f612 d3be 3707 5f3e
000002a0: afda e33e a289 36be 9dea d3be 1990 e9be
000002b0: cc6f 68bd b651 733e d650 a8be a49f 99be
000002c0: 6366 b73e 3180 acbe 4584 7c3e 4053 ae3d
000002d0: 2c72 d03e 7b0d a53d c00a 98be 6022 efbe
000002e0: db2a db3e 8f8b 9dbe 2d9c cebe dca7 cdbe
000002f0: 2ba6 a63d 7538 e6bd e926 2e3e 2e4c 92be
0.53331935 0.29969525 0.3981723 0.29059723 0.32437605 -0.22419722 0.060045734 0.46897238
0.097940184 -0.11300222 -0.33812097 -0.44436878 -0.096230745 -0.30127412 -0.39335245 0.27141738
-0.11961594 -0.28965122 -0.3659019 0.048616827 -0.31864798 0.13143617 0.25768703 0.08792889
0.15411115 0.0388422 0.28642154 -0.2645604 0.33576018 -0.31649232 0.12395787 -0.3572337
-0.457598 -0.29547358 0.28214055 -0.26853195 -0.21269983 0.123726845 -0.38801113 0.014940651
0.13996 0.031617187 -0.09103764 0.046479233 -0.12438528 0.022199588 -0.04004196 -0.30302548
-0.27093816 0.107036 0.30198234 0.07079214 0.3229449 -0.1950658 -0.4114238 0.08238429
-0.38767913 0.006650565 0.29209054 0.14877927 0.31502032 -0.42534572 0.264503 0.48586613
0.31311604 0.09323874 -0.34001252 0.18159659 -0.29950002 -0.43945462 -0.25937545 0.19804813
-0.10325582 -0.2316078 0.3453977 0.25132933 -0.21294186 0.44137326 0.3495675 -0.43940637
0.0142268995 0.24800594 0.4181283 -0.36157116 -0.4552897 -0.23467408 0.43356198 0.24055982
-0.3509637 0.45598292 -0.46071884 -0.0844509 -0.42593202 -0.37560254 0.05246705 0.03430119
-0.25782877 -0.19397695 0.18437827 0.21355592 -0.06470696 -0.31057045 -0.38302988 0.4018878
-0.3873187 -0.17392215 0.3104159 0.38613862 -0.31912935 0.17214143 0.30494425 -0.103456676
0.34982684 0.27866992 0.40663996 0.33273378 -0.023108777 0.059494387 0.30232212 -0.1801961
-0.40466455 0.056574076 0.342448 -0.030482182 0.31192517 -0.0679793 -0.017708385 0.2075398
0.22720836 -0.36736906 0.45512772 -0.086969785 -0.14476064 0.40176868 -0.31139243 0.07569416
0.24772611 -0.15713727 -0.17280452 -0.090238765 0.096005365 0.48324865 -0.18903556 -0.047209408
0.17180848 -0.35234427 -0.44704765 0.15416637 -0.31808808 0.14775959 -0.033291224 0.0526753
-0.35773712 0.21176748 0.3606262 0.36092937 -0.3602597 0.3368091 -0.32467306 -0.34455904
0.4051006 0.2943624 0.20207061 0.3895867 0.26813924 0.30614057 -0.41225404 0.21780096
0.4450278 -0.1782594 -0.41389933 -0.4561775 -0.056747243 0.23761639 -0.32874173 -0.3000461
0.35820302 -0.33691552 0.24659832 0.085119724 0.40712106 0.08059212 -0.29695702 -0.46705914
0.42806134 -0.30770537 -0.40353528 -0.4016713 0.08137163 -0.11241237 0.1700703 -0.28573745
